models/bigram_basic_model.pth (torch, 43233 bytes, 3 tensors)

embedding.weight f4 [80, 64]
-0.30262136 1.0435573 1.3030288 -0.42053974 -0.3100591 -0.57449585 1.5244083 -2.0761917
0.4917592 -0.9531434 0.8178732 0.8384667 -0.29901394 -0.5781429 0.8100761 -0.27141485
-1.133875 -0.45773026 0.19881421 0.5351083 1.1371789 -1.7321216 -1.4890652 -0.16412662
0.13533673 0.33987305 -0.069335975 -0.38242587 1.0649024 -0.75202304 0.67078364 0.21786337
-2.4863102 -0.46244964 0.15428475 -0.42733297 -0.6533643 0.3345537 -0.47155622 -1.6427035
0.8536761 1.8576362 0.72283775 0.66337526 1.0141084 0.29772535 -1.3722754 1.3776767
0.9516519 -1.1178347 2.066695 0.9989208 -1.1687708 0.6353662 0.06487224 1.3430462
0.04081434 1.108773 0.05686971 -0.13945653 0.8152715 0.47835305 1.3964776 -0.7940197
0.32009697 0.67159283 -1.0956833 0.5219068 -0.39540234 -0.48706207 -1.1129076 -0.2994245
-1.3842044 -1.3951634 -0.44583708 1.3578575 -0.13721095 -0.22389801 -0.40514383 -0.32046744
1.6674229 -0.41662475 1.5466615 -0.50099134 0.15096483 0.5513851 -1.1414003 -1.2133838
-1.2611165 0.48310128 -0.69405776 -0.84123266 -0.7119348 -0.8486621 1.5084546 -1.5264449
0.5472587 0.30070642 -0.0699737 -0.7794121 1.1165633 0.35189557 0.71698564 0.028602019
0.24314791 -2.1037414 -1.3370378 -1.3821518 0.45814177 0.32728198 -0.6511972 -0.49006948
0.7551323 0.38750458 -1.0775163 0.7501827 -0.14952797 -0.20471014 0.13942775 -1.2246869
-0.4637599 1.8320717 0.11940902 1.2552847 -0.032117553 0.8067465 -0.65163845 -0.3212707
-0.03858717 0.5992263 -2.1221523 0.2769654 -0.014629281 2.000568 -1.3449758 1.2794063
-0.5474353 -0.18711068 2.5294464 0.6289607 -0.99573475 -1.3279353 -0.5149406 -1.6187123
1.7134932 -0.7919021 -0.111542776 -0.65395683 -1.1758816 -1.2000825 -1.3955233 0.88310397
-1.0564935 1.0335107 0.021529105 -1.4912354 1.3002722 -1.2693337 1.2578245 -0.6248182
-0.028785722 0.43843827 2.472238 -0.2998908 -1.6066543 -0.9000333 -0.10118537 -0.10868493
-0.30790526 1.2285768 0.95817935 -0.46947515 1.2553931 -0.08282048 0.36987522 0.26686642
-1.3790689 2.4517791 0.47644064 0.40367764 -0.54933316 -1.1389205 0.53159136 -0.86011285
0.931848 -0.4739424 0.9355664 -0.4029741 0.6539792 0.4610985 1.3974013 0.96294385
1.7873402 -0.54010844 1.4333278 0.055816833 0.75549257 1.3195211 -0.8904623 0.15140615
1.9686536 0.11491103 -0.013678911 -0.9952528 -0.60759026 -0.7493552 1.789687 -0.40315706
-0.4832877 0.21747239 -2.0732265 -0.3776876 0.07646923 -0.1482019 0.65245473 1.5999863
-0.8172464 -1.2864004 -1.3669337 -1.1813762 0.80623364 -0.4565471 -1.4744558 -0.7773333
1.0755597 -0.031729776 0.44533357 0.11958814 0.05093772 -0.9468127 1.2505747 0.38990134
2.4362934 1.2825594 0.2799585 -0.2482676 0.75886756 -0.12054387 0.4013361 -1.3531706
-0.33984095 1.347691 -0.5645853 -0.42163607 1.3032907 0.13451053 1.5052718 -0.8078623
-0.4898671 -1.0154016 1.4758376 0.050661657 0.39018568 0.43169892 1.3241165 -0.12896946
00000000: 30f1 9abe 4993 853f a6c9 a63f fc50 d7be
00000010: 11c0 9ebe 2912 13bf d01f c33f 53e0 04c0
00000020: ddc7 fb3e 3501 74bf 2360 513f c1a5 563f
00000030: 5b18 99be 2c01 14bf 2661 4f3f e3f6 8abe
00000040: d122 91bf 9f5b eabe f495 4b3e dcfc 083f
00000050: 148f 913f 29b6 ddbf b099 bebf cf10 28be
00000060: b695 0a3e d703 ae3e 0500 8ebd 53cd c3be
00000070: b94e 883f 9584 40bf 7ab8 2b3f 9317 5f3e
00000080: b51f 1fc0 33c6 ecbe d2fc 1d3e 63cb dabe
00000090: e242 27bf 9f4a ab3e d16f f1be 1c44 d2bf
000000a0: 848a 5a3f 06c7 ed3f e50b 393f f6d2 293f
000000b0: 4ece 813f 756f 983e b8a6 afbf b657 b03f
000000c0: 759f 733f 3515 8fbf bb44 0440 46b9 7f3f
000000d0: 489a 95bf 5ca7 223f bddb 843d f0e8 ab3f
000000e0: f02c 273d 46ec 8d3f 37f0 683d b1cd 0ebe
000000f0: a2b5 503f b1ea f43e c7bf b23f e044 4bbf
00000100: c0e3 a33e 82ed 2b3f 5a3f 8cbf af9b 053f
00000110: 2d72 cabe 3360 f9be c273 8ebf 2b4e 99be
00000120: 9c2d b1bf b794 b2bf c244 e4be 46ce ad3f
00000130: 0781 0cbe 8545 65be 036f cfbe 4f14 a4be
00000140: 1d6e d53f d74f d5be 01f9 c53f f840 00bf
00000150: 8696 1a3e 9327 0d3f 6819 92bf 2950 9bbf
00000160: 446c a1bf 0d59 f73e c5ad 31bf 065b 57bf
00000170: 5c41 36bf eb41 59bf 0a15 c13f 8c62 c3bf
00000180: 2519 0c3f 31f6 993e 5f4e 8fbd 8d87 47bf
00000190: 8ceb 8e3f a82b b43e 5f8c 373f c84e ea3c
000001a0: c4fb 783e b3a3 06c0 0e24 abbf 5aea b0bf
000001b0: 8f91 ea3e 8191 a73e dcb4 26bf 63ea fabe
000001c0: 5a50 413f 0067 c63e 0eec 89bf f90b 403f
000001d0: dc1d 19be 899f 51be 26c6 0e3e 8ac2 9cbf
000001e0: f071 edbe 5381 ea3f b78c f43d 2bad a03f
000001f0: b28d 03bd f086 4e3f c7d1 26bf 987d a4be
00000200: 950d 1ebd e566 193f 58d1 07c0 69ce 8d3e
00000210: a7af 6fbc 4e09 0040 2b28 acbf 96c3 a33f
00000220: b824 0cbf f199 3fbe 73e2 2140 9203 213f
00000230: 79e8 7ebf c9f9 a9bf 26d3 03bf f731 cfbf
00000240: bf53 db3f 19ba 4abf 8a70 e4bd b769 27bf
00000250: 4a83 96bf 4e9c 99bf 82a0 b2bf 1a13 623f
00000260: 2e3b 87bf 144a 843f ce5d b03c cde0 bebf
00000270: 526f a63f 8779 a2bf 6500 a13f 16f4 1fbf
00000280: 09d0 ebbc fb7a e03e 2639 1e40 498b 99be
00000290: d9a6 cdbf 9568 66bf 463a cfbd 3496 debd
000002a0: c2a5 9dbe 0142 9d3f 3e4b 753f 0c5f f0be
000002b0: b9b0 a03f c99d a9bd 4960 bd3e b7a2 883e
000002c0: 5485 b0bf f3e9 1c40 07f0 f33e d6ae ce3e
000002d0: 19a1 0cbf 26c8 91bf 5f16 083f 5b30 5cbf
000002e0: 978d 6e3f 94a8 f2be 4881 6f3f 9f52 cebe
000002f0: 2e6b 273f 1a15 ec3e 0cde b23f 7d83 763f
00000300: 90c7 e43f 8c44 0abf 4977 b73f 31a0 643d
00000310: f667 413f 11e6 a83f 56f5 63bf 370a 1b3e
00000320: d7fc fb3f 7956 eb3d 831d 60bc e3c8 7ebf
00000330: 098b 1bbf bed5 3fbf 7714 e53f 9a6a cebe
00000340: 7c71 f7be 15b1 5e3e beaf 04c0 4560 c1be
00000350: e69b 9c3d 3dc2 17be 4607 273f 5acc cc3f
00000360: 0f37 51bf c5a8 a4bf aff7 aebf 5637 97bf
00000370: 5465 4e3f 8bc0 e9be f8ba bcbf 51ff 46bf
00000380: f1ab 893f 15f7 01bd c302 e43e a0ea f43d
00000390: 12a4 503d 5162 72bf d512 a03f 26a1 c73e
000003a0: 3bec 1b40 e82a a43f b856 8f3e dd39 7ebe
000003b0: 2545 423f b4df f6bd ed7b cd3e b234 adbf
000003c0: a2ff adbe 2481 ac3f aa88 10bf afe0 d7be
000003d0: 3bd2 a63f 21bd 093e bfac c03f 10d0 4ebf
000003e0: dccf fabe aef8 81bf 3fe8 bc3f 9982 4f3d
000003f0: 6bc6 c73e a407 dd3e a67c a93f 9210 04be

nn_linear.weight f4 [80, 64]
0.04446937 -0.0078010103 0.04552711 -0.056043338 0.0903364 0.00655264 -0.028466385 -0.17035742
0.2125108 0.006471864 0.019112928 0.028795142 0.049415663 -0.02871114 0.2444578 -0.100218125
-0.17745686 -0.11432623 -0.20342432 -0.10823402 0.06774048 -0.06654644 0.08739891 -0.07248147
-0.02248251 0.013035502 0.014463258 -0.064795926 0.040333513 -0.1914807 0.053359255 -0.19205485
-0.1074708 -0.09651317 0.018179083 -0.122636065 0.018486153 -0.18837352 -0.024169995 -0.06375284
0.09159116 0.06679088 0.109641574 0.0554014 0.092757404 -0.052011352 -0.13258845 -0.030611256
-0.024877299 0.13697326 0.20639989 -0.07661819 0.0227025 -0.014265034 0.17479524 0.11229329
0.005331884 -0.03671223 -0.03616727 -0.0006913243 0.04169807 0.19874574 0.15939741 -0.029646333
0.09577111 -0.052525558 0.032761756 -0.026116805 0.32193467 0.3610723 -0.22818258 -0.1807763
0.14983872 -0.12532291 -0.0004521401 -0.16993235 0.1916302 0.27033326 0.030290743 -0.19687621
-0.22499932 0.056576956 0.03187999 -0.1584924 -0.11212628 0.043938182 -0.13416323 0.1467107
0.1294166 0.054940023 -0.103788644 -0.14459534 0.13747908 0.11846388 -0.07484558 -0.15021972
-0.026110634 0.069092065 0.05729046 0.06881464 0.17703445 -0.29858485 0.08908449 -0.27077982
-0.10494259 -0.02701943 -0.03165228 -0.1298643 0.38217327 0.009902301 -0.09247945 -0.19311567
0.01731 0.09686155 -0.173946 -0.07743567 0.035311643 0.011401179 0.15720887 -0.1424567
0.1731411 0.14757615 -0.24266545 0.06909967 -0.16631868 0.3071263 0.184397 -0.115420334
-0.007839046 0.0033706764 -0.004459671 -0.033331104 0.01884418 -0.060583413 0.08019712 0.030844968
0.02610315 -0.025079567 -0.08346114 0.069962114 0.04030491 0.028044598 0.045179345 -0.031913895
0.027355218 -0.118708864 0.04271979 0.09187707 -0.0016162011 -0.008010565 -0.015283512 0.018396856
-0.010883636 0.058995232 0.064015634 0.024996351 0.059104823 -0.031519532 -0.06945313 -0.015398388
0.08134989 -0.082967155 0.059076224 -0.0015370455 -0.046737563 0.001135365 -0.07193761 0.020182988
-0.014617907 0.049381882 -0.01753618 -0.074859716 0.03959374 0.01864819 0.033902176 -0.0025551494
0.041922748 -0.017844025 -0.06596308 0.021836359 -0.06294401 -0.008964249 -0.019876763 0.0683111
0.026129022 0.005128058 0.036030997 -0.12534969 -0.0850742 -0.0754062 -0.10111842 0.02214907
-0.078166224 -0.011261074 -0.25327113 -0.035859633 -0.073397726 0.016498437 -0.1497489 -0.069761336
0.21984188 -0.13382226 0.09239962 0.016824368 0.073203534 -0.15833585 -0.087300144 -0.17124584
-0.048417006 -0.0835824 0.16102096 0.110146575 0.07976275 -0.22719029 -0.07981736 -0.045075614
-0.1481335 0.051335305 0.17640795 -0.1790425 0.17189018 -0.08622674 0.15370928 -0.085221566
-0.09246938 -0.18079586 0.35311535 -0.1248741 -0.095751256 -0.23095499 -0.106375344 -0.067708954
0.06250475 0.06853214 0.25920162 -0.078001365 0.19785656 -0.046036735 -0.04776376 0.16044623
-0.02747261 0.07572795 0.08727261 -0.01115962 -0.07367306 -0.21961111 0.172547 0.0020912301
0.18664676 -0.020672442 -0.09184869 0.1301016 -0.0046526454 -0.0026967833 0.040922794 -0.039671723
00000000: 8425 363d 9e9f ffbb a37a 3a3d b38d 65bd
00000010: 4a02 b93d 87b7 d63b 5632 e9bc 2d72 2ebe
00000020: 6e9c 593e ee11 d43b b792 9c3c cae3 eb3c
00000030: 1468 4a3d a033 ebbc 2553 7a3e 293f cdbd
00000040: 40b7 35be df23 eabd 774e 50be cca9 ddbd
00000050: 85bb 8a3d 8049 88bd 33fe b23d 2a71 94bd
00000060: 3e2d b8bc dc92 553c 4df7 6c3c bab3 84bd
00000070: c134 253d 8413 44be 3c8f 5a3d 07aa 44be
00000080: a719 dcbd b2a8 c5bd 4dec 943c 9e28 fbbd
00000090: 4670 973c fde4 40be 2700 c6bc d990 82bd
000000a0: 2594 bb3d a8c9 883d c38b e03d 94ec 623d
000000b0: 98f7 bd3d db09 55bd 44c5 07be 75c4 fabc
000000c0: 7acb cbbc b842 0c3e 7e5a 533e ffe9 9cbd
000000d0: 98fa b93c e4b7 69bc 86fd 323e 06fa e53d
000000e0: 16b7 ae3b 905f 16bd 2224 14bd fd39 35ba
000000f0: 98cb 2a3d 0184 4b3e 1339 233e dedc f2bc
00000100: a523 c43d 0a25 57bd 3131 063d e9f2 d5bc
00000110: 9fd4 a43e 78de b83e b2a8 69be 6c1d 39be
00000120: 526f 193e a654 00be 380d edb9 bf02 2ebe
00000130: b53a 443e 1f69 8a3e 4b24 f83c eb99 49be
00000140: 3966 66be 3dbd 673d 9894 023d d54b 22be
00000150: 77a2 e5bd 86f8 333d 1662 09be 543b 163e
00000160: c985 043e ca08 613d 248f d4bd cd10 14be
00000170: 51c7 0c3e 319d f23d a448 99bd 33d3 19be
00000180: f8e5 d5bc 2480 8d3d 67a9 6a3d b1ee 8c3d
00000190: 8548 353e 1de0 98be ee71 b63d a7a3 8abe
000001a0: 24ec d6bd da57 ddbc d2a5 01bd 26fb 04be
000001b0: 37ac c33e 433d 223c de65 bdbd 1dc0 45be
000001c0: b3cd 8d3c 595f c63d e61e 32be 9896 9ebd
000001d0: f1a2 103d 03cc 3a3c 5dfb 203e 2be0 11be
000001e0: e74b 313e 341e 173e 4b7d 78be 2184 8d3d
000001f0: 724f 2abe a93f 9d3e 91d2 3c3e 7f61 ecbd
00000200: 586f 00bc 91e6 5c3b 6f22 92bb 3286 08bd
00000210: 1c5f 9a3c 5026 78bd 633e a43d 96ae fc3c
00000220: 46d6 d53c aa73 cdbc aded aabd 4c48 8f3d
00000230: c316 253d c9bd e53c fa0d 393d 25b8 02bd
00000240: 0d18 e03c a21d f3bd f2fa 2e3d 0c2a bc3d
00000250: b6d6 d3ba bf3e 03bc b267 7abc 01b5 963c
00000260: 4751 32bc fca4 713d a11a 833d 26c5 cc3c
00000270: e617 723d a01a 01bd 713d 8ebd 8549 7cbc
00000280: c59a a63d afea a9bd e9f9 713d b076 c9ba
00000290: e36f 3fbd 87d0 943a 0754 93bd cb56 a53c
000002a0: f27f 6fbc a844 4a3d 09a8 8fbc 0d50 99bd
000002b0: 0c2d 223d 17c4 983c 02dd 0a3d 4b74 27bb
000002c0: 30b7 2b3d a22d 92bc a717 87bd 2ae2 b23c
000002d0: cae8 80bd c9de 12bc 98d4 a2bc b1e6 8b3d
000002e0: 880c d63c 4509 a83b 3d95 133d ab5b 00be
000002f0: 623b aebd 916e 9abd 2d17 cfbd f771 b53c
00000300: 9d15 a0bd 5e80 38bc c1ac 81be 8de1 12bd
00000310: 8c51 96bd bb27 873c c757 19be 08df 8ebd
00000320: 3b1e 613e b408 09be 033c bd3d 42d3 893c
00000330: bceb 953d cb22 22be 6bca b2bd 125b 2fbe
00000340: e950 46bd 402d abbd aee2 243e 8794 e13d
00000350: a75a a33d 92a4 68be 4977 a3bd 35a1 38bd
00000360: 4fb0 17be f844 523d 49a4 343e eb56 37be
00000370: fb03 303e a597 b0bd f765 1d3e a588 aebd
00000380: 9660 bdbd 8d22 39be 89cb b43e febd ffbd
00000390: 3c19 c4bd 777f 6cbe 51db d9bd feaa 8abd
000003a0: 7e02 803d 945a 8c3d 13b6 843e 2ebf 9fbd
000003b0: e99a 4a3e 0491 3cbd efa3 43bd 044c 243e
000003c0: 3d0e e1bc 4117 9b3d fbbb b23d d7d6 36bc
000003d0: e7e1 96bd bce1 60be 29b0 303e 050d 093b
000003e0: 5420 3f3e 4159 a9bc 2a1b bcbd 5b39 053e
000003f0: 3875 98bb 84bc 30bb a99e 273d d17e 22bd

nn_linear.bias f4 [80]
0.17954433 0.32297596 -0.12654392 -0.019600634 -0.15365048 -0.04394182 -0.13595745 -0.17126516
-0.17272733 0.029493917 -0.102178134 0.049581397 -0.118739486 -0.16899115 -0.17641978 -0.06453711
-0.111419834 -0.09796721 -0.09445509 -0.0244034 -0.22335581 -0.17498365 -0.1979393 -0.13609038
-0.25048867 -0.06624413 -0.1775799 -0.03848505 -0.069963776 -0.16797943 -0.07318939 -0.17506824
0.060951903 -0.103623666 -0.23752104 -0.16115597 -0.24627113 -0.1545896 -0.18038112 0.024812158
-0.1949353 -0.13325298 -0.14117685 -0.006087165 0.016538532 -0.05303253 -0.23790641 -0.08131669
-0.062231366 -0.16286914 -0.22297019 -0.17683917 -0.12516157 -0.2417449 0.2867626 -0.11623774
-0.005618798 0.11445496 0.3379917 -0.0019361906 -0.030118812 0.1575634 0.34505767 -0.17258225
-0.102670066 0.101537496 -0.014787404 0.08705245 0.14095041 0.054606277 -0.14119644 0.19016963
0.18756151 0.23147483 0.153169 -0.022425953 0.02970934 -0.09892644 -0.08509377 -0.08954321
00000000: 78da 373e 1b5d a53e bb94 01be 8291 a0bc
00000010: 8d56 1dbe 56fc 33bd 6e38 0bbe 2260 2fbe
00000020: 6fdf 30be 3a9d f13c c542 d1bd dd15 4b3d
00000030: b02d f3bd 040c 2dbe 63a7 34be 082c 84bd
00000040: 1530 e4bd 08a3 c8bd ac71 c1bd a4e9 c7bc
00000050: 63b7 64be ea2e 33be 9ab0 4abe 475b 0bbe
00000060: 0d40 80be 01ab 87bd 81d7 35be 80a2 1dbd
00000070: 2b49 8fbd cd02 2cbe 52e4 95bd 1745 33be
00000080: b4a8 793d a538 d4bd b738 73be 1206 25be
00000090: 802e 7cbe bc4c 1ebe d4b5 38be de42 cb3c
000000a0: 1f9d 47be 7873 08be aa90 10be d776 c7bb
000000b0: d17b 873c a338 59bd bd9d 73be 5d89 a6bd
000000c0: 51e6 7ebd 2bc7 26be 4c52 64be 5415 35be
000000d0: 5b2a 00be fa8b 77be 8cd2 923e 0d0e eebd
000000e0: e51d b8bb 5d67 ea3d 400d ad3e c7c7 fdba
000000f0: babb f6bc 4d58 213e 66ab b03e 67b9 30be
00000100: af44 d2bd e4f2 cf3d de46 72bc 8e48 b23d
00000110: 4e55 103e d5aa 5f3d cd95 10be d4bb 423e
00000120: 2010 403e bd07 6d3e 56d8 1c3e a2b6 b7bc
00000130: 0061 f33c f299 cabd a445 aebd 6e62 b7bd
